pyenv-virtualenv: prompt changing will be removed from future release. configure `export PYENV_VIRTUALENV_DISABLE_PROMPT=1' to simulate the behavior.
The code will run on GPU.
torch.Size([9, 3, 256, 256])
The code will run on GPU.etrf3o
g21 Parameters
----------------------------------------------------------------
        Layer (type)               Output Shape         Param #
================================================================
            Conv2d-1         [-1, 64, 128, 128]           3,136
         LeakyReLU-2         [-1, 64, 128, 128]               0
            Conv2d-3          [-1, 128, 64, 64]         131,072
    InstanceNorm2d-4          [-1, 128, 64, 64]             256
 DownSamplingBlock-5          [-1, 128, 64, 64]               0
         LeakyReLU-6          [-1, 128, 64, 64]               0
            Conv2d-7          [-1, 256, 32, 32]         524,288
    InstanceNorm2d-8          [-1, 256, 32, 32]             512
 DownSamplingBlock-9          [-1, 256, 32, 32]               0
        LeakyReLU-10          [-1, 256, 32, 32]               0
           Conv2d-11          [-1, 512, 16, 16]       2,097,152
   InstanceNorm2d-12          [-1, 512, 16, 16]           1,024
DownSamplingBlock-13          [-1, 512, 16, 16]               0
        LeakyReLU-14          [-1, 512, 16, 16]               0
           Conv2d-15            [-1, 512, 8, 8]       4,194,304
   InstanceNorm2d-16            [-1, 512, 8, 8]           1,024
DownSamplingBlock-17            [-1, 512, 8, 8]               0
        LeakyReLU-18            [-1, 512, 8, 8]               0
           Conv2d-19            [-1, 512, 4, 4]       4,194,304
   InstanceNorm2d-20            [-1, 512, 4, 4]           1,024
DownSamplingBlock-21            [-1, 512, 4, 4]               0
        LeakyReLU-22            [-1, 512, 4, 4]               0
  ConvTranspose2d-23            [-1, 512, 8, 8]       4,194,304
   InstanceNorm2d-24            [-1, 512, 8, 8]           1,024
          Dropout-25            [-1, 512, 8, 8]               0
  UpSamplingBlock-26            [-1, 512, 8, 8]               0
        LeakyReLU-27           [-1, 1024, 8, 8]               0
    ConstantPad2d-28         [-1, 1024, 11, 11]               0
           Conv2d-29            [-1, 512, 8, 8]       8,389,120
          Dropout-30            [-1, 512, 8, 8]               0
        LeakyReLU-31            [-1, 512, 8, 8]               0
    ConstantPad2d-32          [-1, 512, 11, 11]               0
           Conv2d-33            [-1, 512, 8, 8]       4,194,304
   InstanceNorm2d-34            [-1, 512, 8, 8]           1,024
          Dropout-35            [-1, 512, 8, 8]               0
     StandardUnit-36            [-1, 512, 8, 8]               0
        LeakyReLU-37            [-1, 512, 8, 8]               0
  ConvTranspose2d-38          [-1, 512, 16, 16]       4,194,304
   InstanceNorm2d-39          [-1, 512, 16, 16]           1,024
          Dropout-40          [-1, 512, 16, 16]               0
  UpSamplingBlock-41          [-1, 512, 16, 16]               0
        LeakyReLU-42         [-1, 1024, 16, 16]               0
    ConstantPad2d-43         [-1, 1024, 19, 19]               0
           Conv2d-44          [-1, 512, 16, 16]       8,389,120
        LeakyReLU-45          [-1, 512, 16, 16]               0
    ConstantPad2d-46          [-1, 512, 19, 19]               0
           Conv2d-47          [-1, 512, 16, 16]       4,194,304
   InstanceNorm2d-48          [-1, 512, 16, 16]           1,024
     StandardUnit-49          [-1, 512, 16, 16]               0
        LeakyReLU-50          [-1, 512, 16, 16]               0
  ConvTranspose2d-51          [-1, 256, 32, 32]       2,097,152
   InstanceNorm2d-52          [-1, 256, 32, 32]             512
  UpSamplingBlock-53          [-1, 256, 32, 32]               0
        LeakyReLU-54          [-1, 512, 32, 32]               0
    ConstantPad2d-55          [-1, 512, 35, 35]               0
           Conv2d-56          [-1, 256, 32, 32]       2,097,408
        LeakyReLU-57          [-1, 256, 32, 32]               0
    ConstantPad2d-58          [-1, 256, 35, 35]               0
           Conv2d-59          [-1, 256, 32, 32]       1,048,576
   InstanceNorm2d-60          [-1, 256, 32, 32]             512
     StandardUnit-61          [-1, 256, 32, 32]               0
        LeakyReLU-62          [-1, 256, 32, 32]               0
  ConvTranspose2d-63          [-1, 128, 64, 64]         524,288
   InstanceNorm2d-64          [-1, 128, 64, 64]             256
  UpSamplingBlock-65          [-1, 128, 64, 64]               0
        LeakyReLU-66          [-1, 256, 64, 64]               0
    ConstantPad2d-67          [-1, 256, 67, 67]               0
           Conv2d-68          [-1, 128, 64, 64]         524,416
        LeakyReLU-69          [-1, 128, 64, 64]               0
    ConstantPad2d-70          [-1, 128, 67, 67]               0
           Conv2d-71          [-1, 128, 64, 64]         262,144
   InstanceNorm2d-72          [-1, 128, 64, 64]             256
     StandardUnit-73          [-1, 128, 64, 64]               0
        LeakyReLU-74          [-1, 128, 64, 64]               0
  ConvTranspose2d-75         [-1, 64, 128, 128]         131,072
   InstanceNorm2d-76         [-1, 64, 128, 128]             128
  UpSamplingBlock-77         [-1, 64, 128, 128]               0
        LeakyReLU-78        [-1, 128, 128, 128]               0
    ConstantPad2d-79        [-1, 128, 131, 131]               0
           Conv2d-80         [-1, 64, 128, 128]         131,136
        LeakyReLU-81         [-1, 64, 128, 128]               0
    ConstantPad2d-82         [-1, 64, 131, 131]               0
           Conv2d-83         [-1, 64, 128, 128]          65,536
   InstanceNorm2d-84         [-1, 64, 128, 128]             128
     StandardUnit-85         [-1, 64, 128, 128]               0
        LeakyReLU-86         [-1, 64, 128, 128]               0
  ConvTranspose2d-87         [-1, 32, 256, 256]          32,800
             Tanh-88         [-1, 32, 256, 256]               0
FinalUnetActivate-89         [-1, 32, 256, 256]               0
           UNet_g-90         [-1, 32, 256, 256]               0
           Conv2d-91         [-1, 64, 128, 128]          32,832
        LeakyReLU-92         [-1, 64, 128, 128]               0
           Conv2d-93          [-1, 128, 64, 64]         131,072
   InstanceNorm2d-94          [-1, 128, 64, 64]             256
DownSamplingBlock-95          [-1, 128, 64, 64]               0
        LeakyReLU-96          [-1, 128, 64, 64]               0
           Conv2d-97          [-1, 256, 32, 32]         524,288
   InstanceNorm2d-98          [-1, 256, 32, 32]             512
DownSamplingBlock-99          [-1, 256, 32, 32]               0
       LeakyReLU-100          [-1, 256, 32, 32]               0
          Conv2d-101          [-1, 512, 16, 16]       2,097,152
  InstanceNorm2d-102          [-1, 512, 16, 16]           1,024
DownSamplingBlock-103          [-1, 512, 16, 16]               0
       LeakyReLU-104          [-1, 512, 16, 16]               0
          Conv2d-105            [-1, 512, 8, 8]       4,194,304
  InstanceNorm2d-106            [-1, 512, 8, 8]           1,024
DownSamplingBlock-107            [-1, 512, 8, 8]               0
       LeakyReLU-108            [-1, 512, 8, 8]               0
          Conv2d-109            [-1, 512, 4, 4]       4,194,304
  InstanceNorm2d-110            [-1, 512, 4, 4]           1,024
DownSamplingBlock-111            [-1, 512, 4, 4]               0
       LeakyReLU-112            [-1, 512, 4, 4]               0
 ConvTranspose2d-113            [-1, 512, 8, 8]       4,194,304
  InstanceNorm2d-114            [-1, 512, 8, 8]           1,024
         Dropout-115            [-1, 512, 8, 8]               0
 UpSamplingBlock-116            [-1, 512, 8, 8]               0
       LeakyReLU-117           [-1, 1024, 8, 8]               0
   ConstantPad2d-118         [-1, 1024, 11, 11]               0
          Conv2d-119            [-1, 512, 8, 8]       8,389,120
         Dropout-120            [-1, 512, 8, 8]               0
       LeakyReLU-121            [-1, 512, 8, 8]               0
   ConstantPad2d-122          [-1, 512, 11, 11]               0
          Conv2d-123            [-1, 512, 8, 8]       4,194,304
  InstanceNorm2d-124            [-1, 512, 8, 8]           1,024
         Dropout-125            [-1, 512, 8, 8]               0
    StandardUnit-126            [-1, 512, 8, 8]               0
       LeakyReLU-127            [-1, 512, 8, 8]               0
 ConvTranspose2d-128          [-1, 512, 16, 16]       4,194,304
  InstanceNorm2d-129          [-1, 512, 16, 16]           1,024
         Dropout-130          [-1, 512, 16, 16]               0
 UpSamplingBlock-131          [-1, 512, 16, 16]               0
       LeakyReLU-132         [-1, 1024, 16, 16]               0
   ConstantPad2d-133         [-1, 1024, 19, 19]               0
          Conv2d-134          [-1, 512, 16, 16]       8,389,120
       LeakyReLU-135          [-1, 512, 16, 16]               0
   ConstantPad2d-136          [-1, 512, 19, 19]               0
          Conv2d-137          [-1, 512, 16, 16]       4,194,304
  InstanceNorm2d-138          [-1, 512, 16, 16]           1,024
    StandardUnit-139          [-1, 512, 16, 16]               0
       LeakyReLU-140          [-1, 512, 16, 16]               0
 ConvTranspose2d-141          [-1, 256, 32, 32]       2,097,152
  InstanceNorm2d-142          [-1, 256, 32, 32]             512
 UpSamplingBlock-143          [-1, 256, 32, 32]               0
       LeakyReLU-144          [-1, 512, 32, 32]               0
   ConstantPad2d-145          [-1, 512, 35, 35]               0
          Conv2d-146          [-1, 256, 32, 32]       2,097,408
       LeakyReLU-147          [-1, 256, 32, 32]               0
   ConstantPad2d-148          [-1, 256, 35, 35]               0
          Conv2d-149          [-1, 256, 32, 32]       1,048,576
  InstanceNorm2d-150          [-1, 256, 32, 32]             512
    StandardUnit-151          [-1, 256, 32, 32]               0
       LeakyReLU-152          [-1, 256, 32, 32]               0
 ConvTranspose2d-153          [-1, 128, 64, 64]         524,288
  InstanceNorm2d-154          [-1, 128, 64, 64]             256
 UpSamplingBlock-155          [-1, 128, 64, 64]               0
       LeakyReLU-156          [-1, 256, 64, 64]               0
   ConstantPad2d-157          [-1, 256, 67, 67]               0
          Conv2d-158          [-1, 128, 64, 64]         524,416
       LeakyReLU-159          [-1, 128, 64, 64]               0
   ConstantPad2d-160          [-1, 128, 67, 67]               0
          Conv2d-161          [-1, 128, 64, 64]         262,144
  InstanceNorm2d-162          [-1, 128, 64, 64]             256
    StandardUnit-163          [-1, 128, 64, 64]               0
       LeakyReLU-164          [-1, 128, 64, 64]               0
 ConvTranspose2d-165         [-1, 64, 128, 128]         131,072
  InstanceNorm2d-166         [-1, 64, 128, 128]             128
 UpSamplingBlock-167         [-1, 64, 128, 128]               0
       LeakyReLU-168        [-1, 128, 128, 128]               0
   ConstantPad2d-169        [-1, 128, 131, 131]               0
          Conv2d-170         [-1, 64, 128, 128]         131,136
       LeakyReLU-171         [-1, 64, 128, 128]               0
   ConstantPad2d-172         [-1, 64, 131, 131]               0
          Conv2d-173         [-1, 64, 128, 128]          65,536
  InstanceNorm2d-174         [-1, 64, 128, 128]             128
    StandardUnit-175         [-1, 64, 128, 128]               0
       LeakyReLU-176         [-1, 64, 128, 128]               0
 ConvTranspose2d-177         [-1, 32, 256, 256]          32,800
            Tanh-178         [-1, 32, 256, 256]               0
FinalUnetActivate-179         [-1, 32, 256, 256]               0
          UNet_g-180         [-1, 32, 256, 256]               0
          Conv2d-181         [-1, 64, 128, 128]          32,832
       LeakyReLU-182         [-1, 64, 128, 128]               0
          Conv2d-183          [-1, 128, 64, 64]         131,072
  InstanceNorm2d-184          [-1, 128, 64, 64]             256
DownSamplingBlock-185          [-1, 128, 64, 64]               0
       LeakyReLU-186          [-1, 128, 64, 64]               0
          Conv2d-187          [-1, 256, 32, 32]         524,288
  InstanceNorm2d-188          [-1, 256, 32, 32]             512
DownSamplingBlock-189          [-1, 256, 32, 32]               0
       LeakyReLU-190          [-1, 256, 32, 32]               0
          Conv2d-191          [-1, 512, 16, 16]       2,097,152
  InstanceNorm2d-192          [-1, 512, 16, 16]           1,024
DownSamplingBlock-193          [-1, 512, 16, 16]               0
       LeakyReLU-194          [-1, 512, 16, 16]               0
          Conv2d-195            [-1, 512, 8, 8]       4,194,304
  InstanceNorm2d-196            [-1, 512, 8, 8]           1,024
DownSamplingBlock-197            [-1, 512, 8, 8]               0
       LeakyReLU-198            [-1, 512, 8, 8]               0
          Conv2d-199            [-1, 512, 4, 4]       4,194,304
  InstanceNorm2d-200            [-1, 512, 4, 4]           1,024
DownSamplingBlock-201            [-1, 512, 4, 4]               0
       LeakyReLU-202            [-1, 512, 4, 4]               0
 ConvTranspose2d-203            [-1, 512, 8, 8]       4,194,304
  InstanceNorm2d-204            [-1, 512, 8, 8]           1,024
         Dropout-205            [-1, 512, 8, 8]               0
 UpSamplingBlock-206            [-1, 512, 8, 8]               0
       LeakyReLU-207           [-1, 1024, 8, 8]               0
   ConstantPad2d-208         [-1, 1024, 11, 11]               0
          Conv2d-209            [-1, 512, 8, 8]       8,389,120
         Dropout-210            [-1, 512, 8, 8]               0
       LeakyReLU-211            [-1, 512, 8, 8]               0
   ConstantPad2d-212          [-1, 512, 11, 11]               0
          Conv2d-213            [-1, 512, 8, 8]       4,194,304
  InstanceNorm2d-214            [-1, 512, 8, 8]           1,024
         Dropout-215            [-1, 512, 8, 8]               0
    StandardUnit-216            [-1, 512, 8, 8]               0
       LeakyReLU-217            [-1, 512, 8, 8]               0
 ConvTranspose2d-218          [-1, 512, 16, 16]       4,194,304
  InstanceNorm2d-219          [-1, 512, 16, 16]           1,024
         Dropout-220          [-1, 512, 16, 16]               0
 UpSamplingBlock-221          [-1, 512, 16, 16]               0
       LeakyReLU-222         [-1, 1024, 16, 16]               0
   ConstantPad2d-223         [-1, 1024, 19, 19]               0
          Conv2d-224          [-1, 512, 16, 16]       8,389,120
       LeakyReLU-225          [-1, 512, 16, 16]               0
   ConstantPad2d-226          [-1, 512, 19, 19]               0
          Conv2d-227          [-1, 512, 16, 16]       4,194,304
  InstanceNorm2d-228          [-1, 512, 16, 16]           1,024
    StandardUnit-229          [-1, 512, 16, 16]               0
       LeakyReLU-230          [-1, 512, 16, 16]               0
 ConvTranspose2d-231          [-1, 256, 32, 32]       2,097,152
  InstanceNorm2d-232          [-1, 256, 32, 32]             512
 UpSamplingBlock-233          [-1, 256, 32, 32]               0
       LeakyReLU-234          [-1, 512, 32, 32]               0
   ConstantPad2d-235          [-1, 512, 35, 35]               0
          Conv2d-236          [-1, 256, 32, 32]       2,097,408
       LeakyReLU-237          [-1, 256, 32, 32]               0
   ConstantPad2d-238          [-1, 256, 35, 35]               0
          Conv2d-239          [-1, 256, 32, 32]       1,048,576
  InstanceNorm2d-240          [-1, 256, 32, 32]             512
    StandardUnit-241          [-1, 256, 32, 32]               0
       LeakyReLU-242          [-1, 256, 32, 32]               0
 ConvTranspose2d-243          [-1, 128, 64, 64]         524,288
  InstanceNorm2d-244          [-1, 128, 64, 64]             256
 UpSamplingBlock-245          [-1, 128, 64, 64]               0
       LeakyReLU-246          [-1, 256, 64, 64]               0
   ConstantPad2d-247          [-1, 256, 67, 67]               0
          Conv2d-248          [-1, 128, 64, 64]         524,416
       LeakyReLU-249          [-1, 128, 64, 64]               0
   ConstantPad2d-250          [-1, 128, 67, 67]               0
          Conv2d-251          [-1, 128, 64, 64]         262,144
  InstanceNorm2d-252          [-1, 128, 64, 64]             256
    StandardUnit-253          [-1, 128, 64, 64]               0
       LeakyReLU-254          [-1, 128, 64, 64]               0
 ConvTranspose2d-255         [-1, 64, 128, 128]         131,072
  InstanceNorm2d-256         [-1, 64, 128, 128]             128
 UpSamplingBlock-257         [-1, 64, 128, 128]               0
       LeakyReLU-258        [-1, 128, 128, 128]               0
   ConstantPad2d-259        [-1, 128, 131, 131]               0
          Conv2d-260         [-1, 64, 128, 128]         131,136
       LeakyReLU-261         [-1, 64, 128, 128]               0
   ConstantPad2d-262         [-1, 64, 131, 131]               0
          Conv2d-263         [-1, 64, 128, 128]          65,536
  InstanceNorm2d-264         [-1, 64, 128, 128]             128
    StandardUnit-265         [-1, 64, 128, 128]               0
       LeakyReLU-266         [-1, 64, 128, 128]               0
 ConvTranspose2d-267          [-1, 3, 256, 256]           3,075
            Tanh-268          [-1, 3, 256, 256]               0
FinalUnetActivate-269          [-1, 3, 256, 256]               0
          UNet_g-270          [-1, 3, 256, 256]               0
================================================================
Total params: 154,901,571
Trainable params: 154,901,571
Non-trainable params: 0
----------------------------------------------------------------
Input size (MB): 0.75
Forward/backward pass size (MB): 931.60
Params size (MB): 590.90
Estimated Total Size (MB): 1523.25
----------------------------------------------------------------
Discriminator Parameters
----------------------------------------------------------------
        Layer (type)               Output Shape         Param #
================================================================
            Conv2d-1         [-1, 64, 128, 128]           3,136
            Conv2d-2          [-1, 128, 64, 64]         204,928
    InstanceNorm2d-3          [-1, 128, 64, 64]               0
            Conv2d-4          [-1, 256, 32, 32]         524,544
    InstanceNorm2d-5          [-1, 256, 32, 32]               0
            Conv2d-6          [-1, 512, 31, 31]       2,097,664
    InstanceNorm2d-7          [-1, 512, 31, 31]               0
            Conv2d-8            [-1, 1, 30, 30]           8,193
================================================================
Total params: 2,838,465
Trainable params: 2,838,465
Non-trainable params: 0
----------------------------------------------------------------
Input size (MB): 0.75
Forward/backward pass size (MB): 27.51
Params size (MB): 10.83
Estimated Total Size (MB): 39.09
----------------------------------------------------------------
14512
Step [8706/10000000], loss_g: 5.1397, loss_L1: 0.0977, loss_GAN: 0.2509, percep_loss_clean: 0.2812, loss_d1: 0.4486, lr_d:0.00070, lr_g:0.00070 ,Epoch: 1.0
…
