pyenv-virtualenv: prompt changing will be removed from future release. configure `export PYENV_VIRTUALENV_DISABLE_PROMPT=1' to simulate the behavior.
The code will run on GPU.
torch.Size([9, 3, 256, 256])
The code will run on GPU.etrf3o
g21 Parameters
----------------------------------------------------------------
        Layer (type)               Output Shape         Param #
================================================================
            Conv2d-1         [-1, 64, 256, 256]             256
    InstanceNorm2d-2         [-1, 64, 256, 256]             128
             PReLU-3         [-1, 64, 256, 256]              64
     ConstantPad2d-4         [-1, 64, 257, 258]               0
            Conv2d-5         [-1, 64, 256, 256]          24,640
    InstanceNorm2d-6         [-1, 64, 256, 256]             128
             PReLU-7         [-1, 64, 256, 256]              64
     ConstantPad2d-8        [-1, 128, 258, 258]               0
            Conv2d-9         [-1, 64, 256, 256]          49,216
   InstanceNorm2d-10         [-1, 64, 256, 256]             128
            PReLU-11         [-1, 64, 256, 256]              64
    ConstantPad2d-12        [-1, 192, 260, 258]               0
           Conv2d-13         [-1, 64, 256, 256]          73,792
   InstanceNorm2d-14         [-1, 64, 256, 256]             128
            PReLU-15         [-1, 64, 256, 256]              64
    ConstantPad2d-16        [-1, 256, 264, 258]               0
           Conv2d-17         [-1, 64, 256, 256]          98,368
   InstanceNorm2d-18         [-1, 64, 256, 256]             128
            PReLU-19         [-1, 64, 256, 256]              64
  DilatedDenseNet-20         [-1, 64, 256, 256]               0
           Conv2d-21         [-1, 64, 256, 128]          12,352
   InstanceNorm2d-22         [-1, 64, 256, 128]             128
            PReLU-23         [-1, 64, 256, 128]              64
     DenseEncoder-24         [-1, 64, 256, 128]               0
        LayerNorm-25              [-1, 256, 64]             128
           Linear-26             [-1, 256, 256]          16,640
            Swish-27             [-1, 256, 256]               0
          Dropout-28             [-1, 256, 256]               0
           Linear-29              [-1, 256, 64]          16,448
          Dropout-30              [-1, 256, 64]               0
      FeedForward-31              [-1, 256, 64]               0
          PreNorm-32              [-1, 256, 64]               0
            Scale-33              [-1, 256, 64]               0
        LayerNorm-34              [-1, 256, 64]             128
           Linear-35              [-1, 256, 64]           4,096
           Linear-36             [-1, 256, 128]           8,192
        Embedding-37              [-1, 256, 16]          16,400
           Linear-38              [-1, 256, 64]           4,160
          Dropout-39              [-1, 256, 64]               0
        Attention-40              [-1, 256, 64]               0
          PreNorm-41              [-1, 256, 64]               0
        LayerNorm-42              [-1, 256, 64]             128
        Rearrange-43              [-1, 64, 256]               0
           Conv1d-44             [-1, 256, 256]          16,640
              GLU-45             [-1, 128, 256]               0
           Conv1d-46             [-1, 128, 256]           4,096
  DepthWiseConv1d-47             [-1, 128, 256]               0
      BatchNorm1d-48             [-1, 128, 256]             256
            Swish-49             [-1, 128, 256]               0
           Conv1d-50              [-1, 64, 256]           8,256
        Rearrange-51              [-1, 256, 64]               0
          Dropout-52              [-1, 256, 64]               0
ConformerConvModule-53              [-1, 256, 64]               0
        LayerNorm-54              [-1, 256, 64]             128
           Linear-55             [-1, 256, 256]          16,640
            Swish-56             [-1, 256, 256]               0
          Dropout-57             [-1, 256, 256]               0
           Linear-58              [-1, 256, 64]          16,448
          Dropout-59              [-1, 256, 64]               0
      FeedForward-60              [-1, 256, 64]               0
          PreNorm-61              [-1, 256, 64]               0
            Scale-62              [-1, 256, 64]               0
        LayerNorm-63              [-1, 256, 64]             128
   ConformerBlock-64              [-1, 256, 64]               0
        LayerNorm-65              [-1, 128, 64]             128
           Linear-66             [-1, 128, 256]          16,640
            Swish-67             [-1, 128, 256]               0
          Dropout-68             [-1, 128, 256]               0
           Linear-69              [-1, 128, 64]          16,448
          Dropout-70              [-1, 128, 64]               0
      FeedForward-71              [-1, 128, 64]               0
          PreNorm-72              [-1, 128, 64]               0
            Scale-73              [-1, 128, 64]               0
        LayerNorm-74              [-1, 128, 64]             128
           Linear-75              [-1, 128, 64]           4,096
           Linear-76             [-1, 128, 128]           8,192
        Embedding-77              [-1, 128, 16]          16,400
           Linear-78              [-1, 128, 64]           4,160
          Dropout-79              [-1, 128, 64]               0
        Attention-80              [-1, 128, 64]               0
          PreNorm-81              [-1, 128, 64]               0
        LayerNorm-82              [-1, 128, 64]             128
        Rearrange-83              [-1, 64, 128]               0
           Conv1d-84             [-1, 256, 128]          16,640
              GLU-85             [-1, 128, 128]               0
           Conv1d-86             [-1, 128, 128]           4,096
  DepthWiseConv1d-87             [-1, 128, 128]               0
      BatchNorm1d-88             [-1, 128, 128]             256
            Swish-89             [-1, 128, 128]               0
           Conv1d-90              [-1, 64, 128]           8,256
        Rearrange-91              [-1, 128, 64]               0
          Dropout-92              [-1, 128, 64]               0
ConformerConvModule-93              [-1, 128, 64]               0
        LayerNorm-94              [-1, 128, 64]             128
           Linear-95             [-1, 128, 256]          16,640
            Swish-96             [-1, 128, 256]               0
          Dropout-97             [-1, 128, 256]               0
           Linear-98              [-1, 128, 64]          16,448
          Dropout-99              [-1, 128, 64]               0
     FeedForward-100              [-1, 128, 64]               0
         PreNorm-101              [-1, 128, 64]               0
           Scale-102              [-1, 128, 64]               0
       LayerNorm-103              [-1, 128, 64]             128
  ConformerBlock-104              [-1, 128, 64]               0
            TSCB-105         [-1, 64, 256, 128]               0
       LayerNorm-106              [-1, 256, 64]             128
          Linear-107             [-1, 256, 256]          16,640
           Swish-108             [-1, 256, 256]               0
         Dropout-109             [-1, 256, 256]               0
          Linear-110              [-1, 256, 64]          16,448
         Dropout-111              [-1, 256, 64]               0
     FeedForward-112              [-1, 256, 64]               0
         PreNorm-113              [-1, 256, 64]               0
           Scale-114              [-1, 256, 64]               0
       LayerNorm-115              [-1, 256, 64]             128
          Linear-116              [-1, 256, 64]           4,096
          Linear-117             [-1, 256, 128]           8,192
       Embedding-118              [-1, 256, 16]          16,400
          Linear-119              [-1, 256, 64]           4,160
         Dropout-120              [-1, 256, 64]               0
       Attention-121              [-1, 256, 64]               0
         PreNorm-122              [-1, 256, 64]               0
       LayerNorm-123              [-1, 256, 64]             128
       Rearrange-124              [-1, 64, 256]               0
          Conv1d-125             [-1, 256, 256]          16,640
             GLU-126             [-1, 128, 256]               0
          Conv1d-127             [-1, 128, 256]           4,096
 DepthWiseConv1d-128             [-1, 128, 256]               0
     BatchNorm1d-129             [-1, 128, 256]             256
           Swish-130             [-1, 128, 256]               0
          Conv1d-131              [-1, 64, 256]           8,256
       Rearrange-132              [-1, 256, 64]               0
         Dropout-133              [-1, 256, 64]               0
ConformerConvModule-134              [-1, 256, 64]               0
       LayerNorm-135              [-1, 256, 64]             128
          Linear-136             [-1, 256, 256]          16,640
           Swish-137             [-1, 256, 256]               0
         Dropout-138             [-1, 256, 256]               0
          Linear-139              [-1, 256, 64]          16,448
         Dropout-140              [-1, 256, 64]               0
     FeedForward-141              [-1, 256, 64]               0
         PreNorm-142              [-1, 256, 64]               0
           Scale-143              [-1, 256, 64]               0
       LayerNorm-144              [-1, 256, 64]             128
  ConformerBlock-145              [-1, 256, 64]               0
       LayerNorm-146              [-1, 128, 64]             128
          Linear-147             [-1, 128, 256]          16,640
           Swish-148             [-1, 128, 256]               0
         Dropout-149             [-1, 128, 256]               0
          Linear-150              [-1, 128, 64]          16,448
         Dropout-151              [-1, 128, 64]               0
     FeedForward-152              [-1, 128, 64]               0
         PreNorm-153              [-1, 128, 64]               0
           Scale-154              [-1, 128, 64]               0
       LayerNorm-155              [-1, 128, 64]             128
          Linear-156              [-1, 128, 64]           4,096
          Linear-157             [-1, 128, 128]           8,192
       Embedding-158              [-1, 128, 16]          16,400
          Linear-159              [-1, 128, 64]           4,160
         Dropout-160              [-1, 128, 64]               0
       Attention-161              [-1, 128, 64]               0
         PreNorm-162              [-1, 128, 64]               0
       LayerNorm-163              [-1, 128, 64]             128
       Rearrange-164              [-1, 64, 128]               0
          Conv1d-165             [-1, 256, 128]          16,640
             GLU-166             [-1, 128, 128]               0
          Conv1d-167             [-1, 128, 128]           4,096
 DepthWiseConv1d-168             [-1, 128, 128]               0
     BatchNorm1d-169             [-1, 128, 128]             256
           Swish-170             [-1, 128, 128]               0
          Conv1d-171              [-1, 64, 128]           8,256
       Rearrange-172              [-1, 128, 64]               0
         Dropout-173              [-1, 128, 64]               0
ConformerConvModule-174              [-1, 128, 64]               0
       LayerNorm-175              [-1, 128, 64]             128
          Linear-176             [-1, 128, 256]          16,640
           Swish-177             [-1, 128, 256]               0
         Dropout-178             [-1, 128, 256]               0
          Linear-179              [-1, 128, 64]          16,448
         Dropout-180              [-1, 128, 64]               0
     FeedForward-181              [-1, 128, 64]               0
         PreNorm-182              [-1, 128, 64]               0
           Scale-183              [-1, 128, 64]               0
       LayerNorm-184              [-1, 128, 64]             128
  ConformerBlock-185              [-1, 128, 64]               0
            TSCB-186         [-1, 64, 256, 128]               0
       LayerNorm-187              [-1, 256, 64]             128
          Linear-188             [-1, 256, 256]          16,640
           Swish-189             [-1, 256, 256]               0
         Dropout-190             [-1, 256, 256]               0
          Linear-191              [-1, 256, 64]          16,448
         Dropout-192              [-1, 256, 64]               0
     FeedForward-193              [-1, 256, 64]               0
         PreNorm-194              [-1, 256, 64]               0
           Scale-195              [-1, 256, 64]               0
       LayerNorm-196              [-1, 256, 64]             128
          Linear-197              [-1, 256, 64]           4,096
          Linear-198             [-1, 256, 128]           8,192
       Embedding-199              [-1, 256, 16]          16,400
          Linear-200              [-1, 256, 64]           4,160
         Dropout-201              [-1, 256, 64]               0
       Attention-202              [-1, 256, 64]               0
         PreNorm-203              [-1, 256, 64]               0
       LayerNorm-204              [-1, 256, 64]             128
       Rearrange-205              [-1, 64, 256]               0
          Conv1d-206             [-1, 256, 256]          16,640
             GLU-207             [-1, 128, 256]               0
          Conv1d-208             [-1, 128, 256]           4,096
 DepthWiseConv1d-209             [-1, 128, 256]               0
     BatchNorm1d-210             [-1, 128, 256]             256
           Swish-211             [-1, 128, 256]               0
          Conv1d-212              [-1, 64, 256]           8,256
       Rearrange-213              [-1, 256, 64]               0
         Dropout-214              [-1, 256, 64]               0
ConformerConvModule-215              [-1, 256, 64]               0
       LayerNorm-216              [-1, 256, 64]             128
          Linear-217             [-1, 256, 256]          16,640
           Swish-218             [-1, 256, 256]               0
         Dropout-219             [-1, 256, 256]               0
          Linear-220              [-1, 256, 64]          16,448
         Dropout-221              [-1, 256, 64]               0
     FeedForward-222              [-1, 256, 64]               0
         PreNorm-223              [-1, 256, 64]               0
           Scale-224              [-1, 256, 64]               0
       LayerNorm-225              [-1, 256, 64]             128
  ConformerBlock-226              [-1, 256, 64]               0
       LayerNorm-227              [-1, 128, 64]             128
          Linear-228             [-1, 128, 256]          16,640
           Swish-229             [-1, 128, 256]               0
         Dropout-230             [-1, 128, 256]               0
          Linear-231              [-1, 128, 64]          16,448
         Dropout-232              [-1, 128, 64]               0
     FeedForward-233              [-1, 128, 64]               0
         PreNorm-234              [-1, 128, 64]               0
           Scale-235              [-1, 128, 64]               0
       LayerNorm-236              [-1, 128, 64]             128
          Linear-237              [-1, 128, 64]           4,096
          Linear-238             [-1, 128, 128]           8,192
       Embedding-239              [-1, 128, 16]          16,400
          Linear-240              [-1, 128, 64]           4,160
         Dropout-241              [-1, 128, 64]               0
       Attention-242              [-1, 128, 64]               0
         PreNorm-243              [-1, 128, 64]               0
       LayerNorm-244              [-1, 128, 64]             128
       Rearrange-245              [-1, 64, 128]               0
          Conv1d-246             [-1, 256, 128]          16,640
             GLU-247             [-1, 128, 128]               0
          Conv1d-248             [-1, 128, 128]           4,096
 DepthWiseConv1d-249             [-1, 128, 128]               0
     BatchNorm1d-250             [-1, 128, 128]             256
           Swish-251             [-1, 128, 128]               0
          Conv1d-252              [-1, 64, 128]           8,256
       Rearrange-253              [-1, 128, 64]               0
         Dropout-254              [-1, 128, 64]               0
ConformerConvModule-255              [-1, 128, 64]               0
       LayerNorm-256              [-1, 128, 64]             128
          Linear-257             [-1, 128, 256]          16,640
           Swish-258             [-1, 128, 256]               0
         Dropout-259             [-1, 128, 256]               0
          Linear-260              [-1, 128, 64]          16,448
         Dropout-261              [-1, 128, 64]               0
     FeedForward-262              [-1, 128, 64]               0
         PreNorm-263              [-1, 128, 64]               0
           Scale-264              [-1, 128, 64]               0
       LayerNorm-265              [-1, 128, 64]             128
  ConformerBlock-266              [-1, 128, 64]               0
            TSCB-267         [-1, 64, 256, 128]               0
   ConstantPad2d-268         [-1, 64, 257, 130]               0
          Conv2d-269         [-1, 64, 256, 128]          24,640
  InstanceNorm2d-270         [-1, 64, 256, 128]             128
           PReLU-271         [-1, 64, 256, 128]              64
   ConstantPad2d-272        [-1, 128, 258, 130]               0
          Conv2d-273         [-1, 64, 256, 128]          49,216
  InstanceNorm2d-274         [-1, 64, 256, 128]             128
           PReLU-275         [-1, 64, 256, 128]              64
   ConstantPad2d-276        [-1, 192, 260, 130]               0
          Conv2d-277         [-1, 64, 256, 128]          73,792
  InstanceNorm2d-278         [-1, 64, 256, 128]             128
           PReLU-279         [-1, 64, 256, 128]              64
   ConstantPad2d-280        [-1, 256, 264, 130]               0
          Conv2d-281         [-1, 64, 256, 128]          98,368
  InstanceNorm2d-282         [-1, 64, 256, 128]             128
           PReLU-283         [-1, 64, 256, 128]              64
 DilatedDenseNet-284         [-1, 64, 256, 128]               0
   ConstantPad2d-285         [-1, 64, 256, 130]               0
          Conv2d-286        [-1, 128, 256, 128]          24,704
SPConvTranspose2d-287         [-1, 64, 256, 256]               0
          Conv2d-288          [-1, 3, 256, 256]             579
  InstanceNorm2d-289          [-1, 3, 256, 256]               6
           PReLU-290          [-1, 3, 256, 256]               3
          Conv2d-291          [-1, 3, 256, 256]              12
    MaskDecoderN-292          [-1, 3, 256, 256]               0
================================================================
Total params: 1,305,336
Trainable params: 1,305,336
Non-trainable params: 0
----------------------------------------------------------------
Input size (MB): 0.75
Forward/backward pass size (MB): 1451.30
Params size (MB): 4.98
Estimated Total Size (MB): 1457.03
----------------------------------------------------------------
Discriminator Parameters
----------------------------------------------------------------
        Layer (type)               Output Shape         Param #
================================================================
            Conv2d-1         [-1, 64, 128, 128]           3,136
            Conv2d-2          [-1, 128, 64, 64]         204,928
    InstanceNorm2d-3          [-1, 128, 64, 64]               0
            Conv2d-4          [-1, 256, 32, 32]         524,544
    InstanceNorm2d-5          [-1, 256, 32, 32]               0
            Conv2d-6          [-1, 512, 31, 31]       2,097,664
    InstanceNorm2d-7          [-1, 512, 31, 31]               0
            Conv2d-8            [-1, 1, 30, 30]           8,193
================================================================
Total params: 2,838,465
Trainable params: 2,838,465
Non-trainable params: 0
----------------------------------------------------------------
Input size (MB): 0.75
Forward/backward pass size (MB): 27.51
Params size (MB): 10.83
Estimated Total Size (MB): 39.09
----------------------------------------------------------------
14512
Step [8706/10000000], loss_g: 3.5123, loss_L1: 0.0648, loss_GAN: 0.2688, percep_loss_clean: 0.3403, loss_d1: 0.2550, lr_d:0.00070, lr_g:0.00070 ,Epoch: 1.0
…
